AI Covid-19 Chatbot/data.pth (torch_old, 4289 bytes, 6 tensors)

l1.weight f4 [8, 54]
-0.3903963 -0.33421704 0.6147802 0.16186652 0.86760473 0.23414764 0.2918219 -0.3957735
-0.15695243 -0.4622661 0.47244588 -0.1976893 0.27380955 0.1981635 -0.2466561 -0.33317396
-0.18481965 0.50635016 0.28112695 0.55325633 0.239269 0.47275373 -0.3222248 0.47764665
0.43166402 0.25210112 -0.17738289 0.24397868 -0.3751131 -0.086253114 0.68300045 0.61095744
-0.023390949 0.0716327 -0.16290806 0.70587736 0.9842612 0.39215174 0.43238178 -0.37428242
0.44895414 0.066473894 -0.18124592 0.72238183 0.36545685 -1.014438 -0.29995835 0.35243523
0.33048326 0.3560553 0.1888955 -0.4672741 0.8076053 -0.0012081431 -0.22190303 0.41465434
-0.29667723 0.084353365 -0.54400563 0.92719454 0.33049574 0.6370318 0.46894124 0.55672204
-0.27088353 0.78297967 0.26752758 0.2376513 0.8575606 0.9264547 0.7547349 -0.24838018
0.963652 -0.18193498 0.28322017 -0.5193371 0.048183896 -0.5196643 -0.5193391 0.643692
0.7760313 0.2701998 0.86759526 -0.11816545 -0.13887735 0.9200532 -0.27415222 -0.13209814
0.5386755 0.17670353 -0.20304723 0.38990304 0.14109905 0.55435944 0.8212681 0.007151801
0.99362284 0.2192657 0.39836717 -0.4375757 -0.1699401 0.28117913 -0.104202285 0.42849255
0.27359983 0.30080327 -0.19510724 0.04496707 0.7009821 0.6934663 0.294142 -0.14149098
0.5941047 -0.7308073 0.14129952 0.7504653 0.7660226 0.88587254 0.39702502 0.8526765
0.30767938 -0.051662188 0.5821255 0.9078293 0.65374804 0.35384178 -0.7232561 -0.30478677
-0.059337083 0.453929 0.5157735 0.4093688 0.27384117 0.7613533 0.8717292 -0.11827806
0.66789776 0.53643376 -0.35422733 -0.4918874 0.64430225 -0.2520089 0.5058415 0.62898445
-0.52628624 0.1117711 -0.27438214 0.4842807 -0.5393886 -0.11210691 0.35100406 0.7591893
-0.09143995 1.259987 0.6541939 0.83927417 -0.021306474 -0.01533919 -0.07081082 1.0504396
-0.5547021 0.47379276 -0.26701218 0.4487789 -0.05829857 -0.31895223 -0.05130393 -0.5439626
0.40367016 0.42810705 0.47214836 0.52036077 0.16664535 -0.13584508 0.25434133 0.11096152
0.53183293 -0.17091675 0.08835892 -0.052102286 -0.54284567 0.5149524 0.23548482 0.10854779
-0.20773482 -0.0058265314 0.11374247 0.49896267 -0.1848769 0.01110052 -0.29927802 0.14112048
0.5549159 -0.19283326 -0.18844347 -0.12048556 -0.18127373 0.5102766 0.71741045 0.26708665
0.5946759 -0.31648412 -0.16919202 -0.17285399 0.80885667 0.24901791 0.30018282 -0.5441049
-0.06944829 0.56649584 -0.19510624 0.6111746 0.27767882 0.6051336 0.8764983 -0.18313913
0.72564906 0.7660981 0.215673 -0.054533936 0.271623 -0.7088778 0.341695 0.05414801
0.4385998 0.6552502 0.46362194 0.38323623 0.3694221 0.1461841 -0.5258734 0.39168617
0.27369472 0.38350877 -0.70889145 -0.025811529 0.24093358 0.48183164 0.5772439 0.4494099
0.5609243 0.09098567 0.3916785 0.0398044 0.4198673 0.7599526 -0.014721897 -0.4623503
0.42606437 -0.24294601 0.16033955 0.75283456 -0.230284 0.36585027 0.30236608 0.31874263
00000000: 06e2 c7be 7f1e abbe 3c62 1d3f 56c0 253e
00000010: 581b 5e3f 66c4 6f3e ae69 953e d3a2 cabe
00000020: 23b8 20be 24ae ecbe 6de4 f13e 106f 4abe
00000030: c430 8c3e 5feb 4a3e 6b93 7cbe c795 aabe
00000040: 5d41 3dbe 2aa0 013f dfef 8f3e 35a2 0d3f
00000050: ef02 753e c70c f23e a6fa a4be 1a8e f43e
00000060: 1103 dd3e 6613 813e dca3 35be 8cd5 793e
00000070: d30e c0be 79a5 b0bd 1ed9 2e3f b567 1c3f
00000080: 609e bfbc 2ab4 923d 5fd1 26be 61b4 343f
00000090: 8bf8 7b3f 1dc8 c83e 2561 dd3e f2a1 bfbe
000000a0: 51dd e53e 7723 883d 8898 39be 04ee 383f
000000b0: 291d bb3e 1bd9 81bf 2494 99be 6472 b43e
000000c0: 1a35 a93e e14c b63e d26d 413e 8d3e efbe
000000d0: 39bf 4e3f 8e5a 9eba 8c3a 63be 934d d43e
000000e0: 14e6 97be 75c1 ac3d f443 0bbf 9f5c 6d3f
000000f0: bd36 a93e 8414 233f 1119 f03e 5685 0e3f
00000100: 3fb1 8abe 5b71 483f 60f9 883e dd5a 733e
00000110: 1789 5b3f 232c 6d3f 4e36 413f 6057 7ebe
00000120: e6b1 763f 2a4d 3abe 3c02 913e 47f3 04bf
00000130: 7a5c 453d b808 05bf 68f3 04bf 00c9 243f
00000140: fda9 463f a157 8a3e b91a 5e3f ba00 f2bd
00000150: dd35 0ebe 9b88 6b3f ae5d 8cbe bc44 07be
00000160: a3e6 093f c5f1 343e 9deb 4fbe 5fa1 c73e
00000170: 457c 103e 80ea 0d3f a03e 523f a859 ea3b
00000180: 115e 7e3f 3087 603e c8f6 cb3e ec09 e0be
00000190: c704 2ebe b6f6 8f3e 0268 d5bd 6063 db3e
000001a0: 4715 8c3e e302 9a3e 31ca 47be 642f 383d
000001b0: 9073 333f 0287 313f c899 963e 03e3 10be
000001c0: 3f17 183f 3016 3bbf d2b0 103e 7e1e 403f
000001d0: 0f1a 443f 8bc8 623f dd46 cb3e 0249 5a3f
000001e0: 2788 9d3e bb9b 53bd 2d06 153f 8067 683f
000001f0: 085c 273f c02a b53e 5027 39bf 030d 9cbe
00000200: 710b 73bd 6269 e83e bb09 043f ca98 d13e
00000210: e934 8c3e 0de8 423f a529 5f3f c43b f2bd
00000220: 59fb 2a3f b953 093f 495d b5be aad8 fbbe
00000230: fef0 243f 4f07 81be d47e 013f 2005 213f
00000240: b2ba 06bf 3fe8 e43d d17b 8cbe a4f3 f73e
00000250: 5f15 0abf 4f98 e5bd ceb6 b33e 3b5a 423f
00000260: de44 bbbd 4147 a13f 4079 273f acda 563f
00000270: ea8a aebc 3a51 7bbc 4305 91bd ce74 863f
00000280: f500 0ebf f794 f23e d2b5 88be 59c6 e53e
00000290: 7bca 6ebd b54d a3be 1224 52bd 2241 0bbf
000002a0: dbad ce3e d930 db3e 6ebd f13e 5d36 053f
000002b0: 14a5 2a3e f91a 0bbe 0739 823e cb3f e33d
000002c0: 3426 083f cd04 2fbe 85f5 b43d 3569 55bd
000002d0: eff7 0abf ecd3 033f ef22 713e 4e4e de3d
000002e0: 70b8 54be 7dec bebb d0f1 e83d 0978 ff3e
000002f0: 5f50 3dbe f5de 353c f83a 99be e381 103e
00000300: f80e 0e3f 1576 45be 53f7 40be 22c1 f6bd
00000310: d29f 39be 7da1 023f 36a8 373f 95bf 883e
00000320: ae3c 183f 350a a2be ac40 2dbe a300 31be
00000330: 3b11 4f3f 8dfe 7e3e 90b1 993e 754a 0bbf
00000340: e83a 8ebd df05 113f eec9 47be f075 1c3f
00000350: eb2b 8e3e 09ea 1a3f 3162 603f d388 3bbe
00000360: 23c4 393f 011f 443f 62d9 5c3e fa5e 5fbd
00000370: 2b12 8b3e 0479 35bf a6f2 ae3e 4eca 5d3d
00000380: 2790 e03e 7abe 273f db5f ed3e 8a37 c43e
00000390: e524 bd3e 49b1 153e a49f 06bf 178b c83e
000003a0: b721 8c3e 435b c43e e979 35bf b372 d3bc
000003b0: 4bb7 763e a3b2 f63e 42c6 133f 0e19 e63e
000003c0: bc98 0f3f b256 ba3d 168a c83e f009 233d
000003d0: d9f8 d63e 418c 423f 1d34 71bc 2eb9 ecbe
000003e0: 1c25 da3e d7c6 78be 0d30 243e c4b9 403f
000003f0: 92cf 6bbe ba50 bb3e bacf 9a3e 3c32 a33e

l1.bias f4 [8]
1.015784 0.51907325 0.97771263 0.5441962 0.70891696 1.3247112 0.30740723 0.49526662
00000000: 3605 823f fce1 043f 604b 7a3f 7150 0b3f
00000010: 957b 353f 2390 a93f 7b64 9d3e 9693 fd3e

l2.weight f4 [8, 8]
0.819331 -0.13230678 0.18936065 1.5111378 0.4878876 -0.68590146 -0.28080732 0.79434466
1.7057589 -0.23527499 -0.37414292 0.38335785 -0.14058807 0.30201057 0.76676905 0.29869902
0.9405769 0.58688575 0.3394241 0.03409487 -0.3632961 1.4011768 -1.0876693 0.43602303
-0.08945832 -0.03200999 -0.2852423 -0.065702856 0.13442084 0.09418669 -0.14653645 -0.29083958
0.9309818 -0.85455793 -0.14867744 0.92600805 0.21977846 0.053722434 -0.2803926 0.12799007
-0.54778796 1.2008485 0.7205441 1.152909 0.90066415 -0.84547913 0.8948004 0.82879585
-0.55598617 -0.9191566 1.3877577 -0.31864226 1.7475876 1.0291706 0.12067458 -1.1194308
0.2347412 -0.13151224 0.16859312 -0.13936849 0.072755285 -0.27733445 -0.18469612 -0.19297445
00000000: adbf 513f 6e7b 07be c2e7 413e f76c c13f
00000010: 67cc f93e 3d97 2fbf fac5 8fbe 2c5a 4b3f
00000020: 4f56 da3f edeb 70be a98f bfbe 7b47 c43e
00000030: 52f6 0fbe 21a1 9a3e fa4a 443f 14ef 983e
00000040: a6c9 703f 253e 163f ffc8 ad3e 10a7 0b3d
00000050: f201 babe c359 b33f bf38 8bbf 693e df3e
00000060: ec35 b7bd e81c 03bd 470b 92be 388f 86bd
00000070: 9ea5 093e f4e4 c03d a70d 16be ede8 94be
00000080: d354 6e3f 4fc4 5abf e63e 18be dd0e 6d3f
00000090: 9b0d 613e 0e0c 5c3d 9e8f 8fbe d40f 033e
000000a0: d53b 0cbf 67b5 993f 9475 383f 8692 933f
000000b0: ed91 663f 5271 58bf a411 653f f72b 543f
000000c0: 1c55 0ebf d94d 6bbf 0ba2 b13f 1425 a3be
000000d0: f3b0 df3f ddbb 833f 3c24 f73d 8249 8fbf
000000e0: ff5f 703e 25ab 06be ada3 2c3e 9db6 0ebe
000000f0: b900 953d c8fe 8dbe fb20 3dbe 189b 45be

l2.bias f4 [8]
-0.16319628 0.51828086 0.94457483 -0.07101807 -0.14441207 -0.2566736 0.53162295 -0.33493707
00000000: ed1c 27be 0eae 043f a8cf 713f ec71 91bd
00000010: c2e0 13be b96a 83be 7118 083f df7c abbe

l3.weight f4 [10, 8]
0.28688833 0.10251904 0.0037107202 0.17423698 0.8182083 -0.51355416 -1.5360894 -0.27147302
-1.5873177 -1.4347858 -0.27809727 -0.14844334 -2.052139 0.2330942 0.24283618 -0.14712583
-1.6934075 0.18678796 1.0756168 -0.19616513 -2.0421119 -1.2540135 -1.0706373 0.024751056
-0.7071704 -0.2817981 0.3370151 -0.29656777 0.3757034 -1.6734041 0.2733291 -0.007116754
-0.016486354 -1.1616724 -1.4872329 0.15308538 -1.3195701 0.4531443 -0.09704273 0.2205874
0.38991234 -0.43217406 -1.2625769 0.069251776 -0.011449792 0.47567484 -1.3938425 -0.37305033
0.27488798 -1.1575584 0.33456174 0.28200808 -1.3631672 0.26102632 -1.3356553 0.0968222
-0.045027398 -0.8516998 -0.22906859 0.26482287 -0.0310195 0.10748357 -0.43333238 -0.18746647
-1.2356483 -2.081567 0.3286707 0.044647872 -1.9452249 -1.0960958 0.85708594 -0.18663687
-1.1314449 0.49831262 -0.7359544 -0.16811058 -1.2315232 0.17463832 -0.6170594 0.29504523
00000000: 07e3 923e 81f5 d13d 8e2f 733b 2e6b 323e
00000010: 1976 513f 4978 03bf 949e c4bf 83fe 8abe
00000020: 3a2d cbbf 10a7 b7bf c462 8ebe 8801 18be
00000030: 3f56 03c0 3fb0 6e3e 0caa 783e 27a8 16be
00000040: 94c1 d8bf 5845 3f3e d0ad 893f 83df 48be
00000050: f6b1 02c0 8483 a0bf a50a 89bf bac2 ca3c
00000060: 1f09 35bf d747 90be 3e8d ac3e bbd7 97be
00000070: 325c c03e 1b32 d6bf cbf1 8b3e a933 e9bb
00000080: 640e 87bc aeb1 94bf a65d bebf 6ac2 1c3e
00000090: ace7 a8bf 8802 e83e 57be c6bd aae1 613e
000000a0: 97a2 c73e eb45 ddbe 1f9c a1bf e0d3 8d3d
000000b0: e997 3bbc a78b f33e 6e69 b2bf 7400 bfbe
000000c0: 1ebe 8c3e e02a 94bf ad4b ab3e 5d63 903e
000000d0: 437c aebf 3ea5 853e c1f6 aabf b84a c63d
000000e0: a66e 38bd 0009 5abf f590 6abe dd96 873e
000000f0: 9b1c febc 5920 dc3d bedd ddbe 36f7 3fbe
00000100: b929 9ebf 6538 05c0 8747 a83e b0e0 363d
00000110: 21fd f8bf de4c 8cbf fc69 5b3f bc1d 3fbe
00000120: 30d3 90bf d522 ff3e 8267 3cbf 2e25 2cbe
00000130: 8da2 9dbf 63d4 323e 9bf7 1dbf 2b10 973e

l3.bias f4 [10]
-0.06208617 -0.51011246 0.16848002 0.14838201 0.07100308 -0.0180201 -0.3082324 -0.48508948
-0.07704961 -0.061461706
00000000: 114e 7ebd bb96 02bf 0786 2c3e 74f1 173e
00000010: 106a 913d e49e 93bc a3d0 9dbe a65d f8be
00000020: 30cc 9dbd 45bf 7bbd
